…
2018-09-25 16:22:10.828179: I tensorflow/core/common_runtime/gpu/gpu_device.cc:1041] Created TensorFlow device (/job:localhost/replica:0/task:0/device:GPU:0 with 5647 MB memory) -> physical GPU (device: 0, name: GeForce GTX 1060 6GB, pci bus id: 0000:0b:00.0, compute capability: 6.1)
__________________________________________________________________________________________________
Layer (type)                    Output Shape         Param #     Connected to                     
==================================================================================================
dd_d_input (InputLayer)         (None, 10, 20, 30)   0                                            
__________________________________________________________________________________________________
dd_q_input (InputLayer)         (None, 10, 20, 1)    0                                            
__________________________________________________________________________________________________
hidden (Dense)                  (None, 10, 20, 5)    155         dd_d_input[0][0]                 
__________________________________________________________________________________________________
dd_q_gate (Dense)               (None, 10, 20, 1)    1           dd_q_input[0][0]                 
__________________________________________________________________________________________________
dd_d_gate (Dense)               (None, 10, 20, 1)    6           hidden[0][0]                     
__________________________________________________________________________________________________
dd_q_softmax (Lambda)           (None, 10, 20)       0           dd_q_gate[0][0]                  
__________________________________________________________________________________________________
reshape_1 (Reshape)             (None, 10, 20)       0           dd_d_gate[0][0]                  
__________________________________________________________________________________________________
reshape_2 (Reshape)             (None, 10, 20)       0           dd_q_softmax[0][0]               
__________________________________________________________________________________________________
dd_pseudo_out (Lambda)          (None, 10, 10)       0           reshape_1[0][0]                  
                                                                 reshape_2[0][0]                  
__________________________________________________________________________________________________
baseline_doc_score (InputLayer) (None, 10, 1)        0                                            
__________________________________________________________________________________________________
dd_init_out (Lambda)            (None, 10)           0           dd_pseudo_out[0][0]              
__________________________________________________________________________________________________
dd_gate (Dense)                 (None, 10, 1)        1           baseline_doc_score[0][0]         
__________________________________________________________________________________________________
reshape_4 (Reshape)             (None, 10)           0           dd_init_out[0][0]                
__________________________________________________________________________________________________
reshape_3 (Reshape)             (None, 10)           0           dd_gate[0][0]                    
__________________________________________________________________________________________________
score (Dot)                     (None, 1)            0           reshape_4[0][0]                  
                                                                 reshape_3[0][0]                  
==================================================================================================
Total params: 163
Trainable params: 163
Non-trainable params: 0
__________________________________________________________________________________________________
…
